data.pth (torch, 8855 bytes, 6 tensors)

l1.weight f4 [8, 118]
00000000: 7e1b 1e3f 6d7c 613f 9d91 14bf 43f1 323f
00000010: 196e 773e a9e9 f9bd 0dec 3fbf 89fa e63e
00000020: 835e 16be 4854 4dbf 5c59 41bf dec1 913f
00000030: b14b 513f f93a e53e 7016 45bf 66ac 763e
00000040: f3e2 863f e85a 833f 8039 7b3f c635 233e
00000050: 1d99 423f 109d a63e cd3f eebe e1b1 1cbf
00000060: b2f6 613e 7d96 cfbd 13d8 353f 3072 6c3f
00000070: 000a cd3e 2e8e 7d3e e504 953f e135 423d
00000080: be73 763d a03d 043f b0b4 b03c 0c53 163e
00000090: 459e e03c 7fc5 b63d ca6a 063e d797 253f
000000a0: 298f 543f 8759 263e b6b9 8f3f 7f7d 463f
000000b0: c241 323f 522c b63e e2ea c23e be36 4f3f
000000c0: 2e97 093f dcfc 853f 42ce cb3e 12d9 243e
000000d0: 7e90 adbe be40 653f 1dd0 373d b595 833f
000000e0: a445 883e 1808 423f c401 643f cd5d 843e
000000f0: ed7a a33d 289b c93e 6e72 d03e 511e 1bbf
00000100: 2aa3 3ebe fb52 273f 6cbe 713f a736 093e
00000110: 2662 833f 4fc1 8a3f 767d fa3e 86c2 03be
00000120: 1bae 763e a157 2e3d 4a4e 3e3e 625c 8e3e
00000130: dd64 f83e 2c29 633f ef14 7f3f 1a6a 9d3e
00000140: 3402 c03e 539c 123f 84ac e53e 2adb b43f
00000150: b14a 393f 060c 6a3f 19dc 6b3c dec7 093e
00000160: d0af 4e3f 4b6b bfbd 4f91 493f fa00 81bc
00000170: 7626 1abe cf74 863e 0875 0cbf ba24 10bf
00000180: 7d0b 3c3f cff1 4c3f 2a5f 913e 06e5 243e
00000190: ee9a 54bf 3a9d e13e 908c bf3e a9e5 abbc
000001a0: 0aa4 10bf c5d4 87bc 67d8 663e 4a33 c8bd
000001b0: 6c38 333f ce64 b03e 3192 c93e 641c 863f
000001c0: 4fef 5d3f 9d0d a23e c673 b8be 6b9d 893f
000001d0: 82fc 2dbf 2eef 4b3f cbbb 79be 9ecb 9d3d
000001e0: 9a41 a53d 0cf5 b53f c728 8dbd ecd5 4a3f
000001f0: cf98 d43e 7be0 a53e 5b30 5fbf 85df 473f
00000200: 374d 3b3f 76a5 033f 7fe5 9a3f 15a2 883f
00000210: bc7d 5b3f 1ca4 3ebb 5214 363f 81d8 683f
00000220: b111 493f 592a 5e3d 7e52 8c3f 6193 ac3e
00000230: 2d2f 243f a30c 323f 9f59 a13e 7424 6ebd
00000240: 3c68 763f c9a1 e9bc 7d33 183f 034d e8bd
00000250: 1578 083f ddec c6bc 0dc2 13be bc7a 4cbe
00000260: dd2b a8bd 8bf0 43be 5652 02bf 56d9 ea3d
00000270: 5865 e73d 0256 3fbf fe2f 833f bafa dcbc
00000280: 75cb 1f3d ee2a 8d3d c867 f83e 4368 f43e
00000290: f8e0 aabc f30d 823f 2dee b0bd acf0 333f
000002a0: 7916 083f 5997 78bd ef32 8a3e 106f 883d
000002b0: 041b 9a3d e0d1 9a3d f515 d43e 86b0 5e3f
000002c0: 10f9 9f3f d41c 903e 35cf 353e e225 813c
000002d0: abf0 e93e 3575 c93e 9545 5fbf 38cf c03e
000002e0: 08b5 94bd 53d8 293e 5820 203f 7b6b 3fbf
000002f0: 6487 97be d0d4 f93e 5249 63bd e510 e7bb
00000300: 3eba d3bd 3a72 57bc 7874 023f 724e 8fbc
00000310: f5ec 373f ef08 84be 4157 05be e46d 35bf
00000320: ad0d 25be 4a53 61bf 41a7 ae3e 4cbc 293f
00000330: 210f 953f 820a 02bd 5a8f 8abe 4660 2c3f
00000340: 0102 a0be 58ed c9be 2c54 773f 38ce 0b3f
00000350: 4bc2 e73e 2abc be3e b815 5fbf 5c2f 98be
00000360: e203 b9bd 757b 4ebe 1d95 a7be e3d2 78be
00000370: 853e 6fbd f208 1f3e f0a8 8b3f 68a6 053f
00000380: 682c 273f c55e b0be 4ae9 5ebf f98a 70be
00000390: 5643 8f3e a6ce 243f 7341 0e3f ca9b 5d3f
000003a0: afe0 e7be f82c 0fbf 7a86 9d3f d99f a5be
000003b0: 833d dabc 1833 2bbd a939 af3d a80d afbd
000003c0: 0710 a7bd 3034 223b 13d7 073d d783 adbc
000003d0: 1f17 31bc 74b3 71bc 9a35 92bd 125a 56bd
000003e0: cbb5 7c3d cd8a 81bc eca5 423c c5af 45bd
000003f0: 7ebf 4cbd 9e96 25ba d7a1 27bd 35f3 a53d
0.617607 0.88080484 -0.5803469 0.69899386 0.24163093 -0.1220277 -0.7496956 0.45113018
-0.14684491 -0.8020673 -0.75526977 1.1387289 0.8175612 0.44771555 -0.7698736 0.24089202
1.053801 1.0262117 0.98134613 0.15938482 0.7601488 0.32541704 -0.4653305 -0.6120892
0.22066763 -0.10136125 0.7103283 0.92361736 0.40046692 0.24761268 1.1642119 0.047414664
0.060168974 0.5165653 0.021570534 0.14680117 0.027419219 0.08924388 0.13126674 0.64684814
0.83030945 0.1624509 1.122855 0.7753524 0.6963159 0.3558069 0.38069826 0.80942905
0.53746307 1.0467792 0.398058 0.16098431 -0.338993 0.89551914 0.044876207 1.0280062
0.26615632 0.757936 0.89065194 0.25852814 0.079824306 0.39376187 0.40712303 -0.60593134
-0.1861693 0.65360993 0.94431186 0.13399754 1.0264328 1.0840243 0.48923844 -0.12867174
0.24089853 0.04256404 0.18584552 0.27804857 0.48514453 0.887347 0.9964132 0.30745012
0.3750168 0.5726978 0.4485818 1.4129384 0.72379595 0.91424596 0.014395737 0.1345515
0.8073702 -0.093466364 0.7873735 -0.015747536 -0.15053734 0.26260993 -0.54866076 -0.5630604
0.7345503 0.8005647 0.28392917 0.1610299 -0.83048904 0.44065267 0.37411928 -0.020983534
-0.56500304 -0.016580949 0.22543488 -0.097754076 0.7000797 0.34451908 0.39369348 1.0477414
0.8669328 0.3165101 -0.36025828 1.0751165 -0.6796342 0.79661834 -0.24388044 0.077048525
0.08069153 1.4215407 -0.06892543 0.7923267 0.41522834 0.32397828 -0.8718316 0.7807544
0.73164696 0.5142435 1.2101287 1.0674464 0.8573873 -0.0029089516 0.71124756 0.9095536
0.7854262 0.054239605 1.0962675 0.3370619 0.64134485 0.6955053 0.31513688 -0.058140233
0.962528 -0.028519528 0.59453565 -0.11342814 0.5330823 -0.024282867 -0.14429493 -0.19968694
-0.08211491 -0.19134729 -0.50906885 0.11467235 0.11298627 -0.7474061 1.0249021 -0.026975024
0.03901239 0.06892954 0.4851668 0.47735795 -0.020859227 1.0160507 -0.086391784 0.7028911
0.5315929 -0.06069121 0.26991984 0.066618085 0.07524684 0.07559562 0.41423002 0.86988103
1.2497883 0.28146994 0.17754824 0.015765134 0.45691428 0.39347234 -0.8721555 0.37658095
-0.072610915 0.16586427 0.6254935 -0.7477338 -0.29595482 0.48795176 -0.055489846 -0.0070515745
-0.10338257 -0.013149792 0.5095897 -0.01749346 0.7184594 -0.25788066 -0.13021566 -0.70870805
-0.16118498 -0.88017714 0.3411198 0.66302943 1.1645242 -0.031748302 -0.27062494 0.673344
-0.3125153 -0.3943889 0.9661281 0.5461154 0.4526542 0.37252933 -0.87142515 -0.29723632
-0.09033944 -0.20164283 -0.32730952 -0.24299197 -0.058409233 0.15530756 1.0910931 0.5220704
0.65302134 -0.34447303 -0.8707472 -0.23490514 0.2798106 0.6437782 0.5556862 0.8656584
-0.45288607 -0.5592799 1.2306664 -0.32348517 -0.02664066 -0.041796774 0.0855592 -0.085475266
-0.08157354 0.0024750344 0.033164095 -0.02118103 -0.010808735 -0.014752258 -0.0713913 -0.05233199
0.06169681 -0.015813256 0.011880379 -0.04826333 -0.04998731 -0.0006316694 -0.040925827 0.08103029

l1.bias f4 [8]
00000000: 2e48 b53f 49fb 5c3f 6cd7 cabd f066 543f
00000010: 135b 3b3f a740 343f 409a 7a3f 5d5c 2a3f
1.4162652 0.8632093 -0.0990437 0.8296957 0.73185843 0.7041115 0.97891617 0.66547185

l2.weight f4 [8, 8]
00000000: 3e85 c93f b33c ebbf 9518 a73e 995b 2b40
00000010: e9ee 79be e8fb 0f3e 7d85 dd3e 04ad 0140
00000020: 8d4a ef3e 0a91 a23f 7bf1 d23d 2dc9 80bf
00000030: 6256 f93f 15cf 5c3f 7ffc 8dbf 4cb1 a43f
00000040: 009f 323f 8ffe ce3f f214 363e 71d1 38bf
00000050: f633 36bf 7356 42be a942 1840 9f68 89be
00000060: de28 e1bd f9be 33bd 2efa 12be 4d43 fe3b
00000070: 070d 8d3d 2598 d13c 9176 34be d82c adbe
00000080: 50c3 b8be 77fe 173f 87f6 50be f011 c33e
00000090: 55ad d63f 5f10 a43f acd2 a33f 5dd4 413e
000000a0: 7497 0240 8cb7 a93f 6be0 e5bd 1cf8 a43e
000000b0: 80ca c93e 1ab8 dcbf cc86 a8be 2830 01c0
000000c0: 228a 333f 4589 9f3f 350a 7d3e 999d 09bf
000000d0: d5ae e0bf 3f8e bc3f 7008 3e3e e1b2 6d3f
000000e0: 4904 d83f e981 00bf 3032 50be 9c10 cb3c
000000f0: d586 c23e 0486 c73f 3560 b7bf 42e3 76be
1.5743787 -1.8377899 0.32635942 2.6774657 -0.24407543 0.14060938 0.43265906 2.026185
0.46736565 1.2700512 0.10299965 -1.0061394 1.9479487 0.8625348 -1.1092681 1.2866607
0.69773865 1.6171435 0.17781428 -0.7219458 -0.71173036 -0.1897829 2.3790686 -0.26837632
-0.10994123 -0.043883298 -0.14353248 0.0077594877 0.068872504 0.025585243 -0.17623354 -0.33823276
-0.36086512 0.5937266 -0.20406543 0.38099623 1.6771647 1.2817496 1.2798667 0.18928666
2.040494 1.3259139 -0.11224445 0.32220542 0.39412308 -1.7243683 -0.32915342 -2.0185642
0.7013265 1.2463766 0.24710925 -0.537561 -1.7553355 1.473091 0.18557906 0.9285107
1.6876308 -0.5019823 -0.20331645 0.024788193 0.37993494 1.5587773 -1.4326235 -0.2411013

l2.bias f4 [8]
00000000: 85f6 723f 7168 95bd 6676 6b3f be22 8fbe
00000010: 7f1e fd3d 66fa 843f 582b 35be 35d5 d23e
0.9490741 -0.07295311 0.91977537 -0.27956194 0.12359332 1.0388916 -0.17692316 0.4117829

l3.weight f4 [24, 8]
00000000: e39d ddbf 5669 0e3f 4bf0 d8bf 0c8e 383d
00000010: ad73 ed3e dc9f 98be 7c27 bcbf bcbf 0b3f
00000020: e859 4d3f 0471 d7bf 50be e1bf fad4 1dbe
00000030: 9de6 29c0 3add 213f 2156 1fbf 2cae b73e
00000040: ff22 fabf dd73 51bf 0814 0f3e 9812 d5bd
00000050: 09cb 30bf b532 843d 1b83 403f 7299 813e
00000060: 64bd 28be 9462 7fbe a0d7 3dbf 794b 5b3e
00000070: e523 b3be a192 fa3e d3b3 dbbf de06 d73e
00000080: f791 1ac0 9d5d 15bf 6f43 393f d43f 4ebe
00000090: 158f 82bf 5859 6f3f 6d22 e43d dfe8 1ec0
000000a0: 7ba9 99be 15e5 a4be dded 9abe b5fd 8f3e
000000b0: 03bc 76bf 60fc 613e f3b4 ffbe 905b 043f
000000c0: 0d34 77bf 164c b83e 4a72 963e bc81 b0be
000000d0: 2710 313e e5bb e8bf d399 6fbf e2ba 30bf
000000e0: d151 6b3e 42b2 003f 0dfe e6bf 74cc a63e
000000f0: 2f8e a23e 0a64 a6bf bc94 debf f9ef 03c0
00000100: 0547 eebe 469f 72be 695c 943e a3c5 a53e
00000110: f154 b0bf 97e2 fabf ad93 133f 75ec 553e
00000120: a9cb 053f 4711 67bf 38a2 76bd c75f 81be
00000130: 9741 0dc0 1555 47be 08fc 153d 3872 f1be
00000140: 3e4b a3be 5c7b 33c0 ffb2 273f 8432 4cbe
00000150: a4ca a4bf ac59 0e3f 6d1b 433e cbe5 32bf
00000160: b9ce 913f 8fd3 c6bf c1ae 62bf a181 c4bd
00000170: 2207 66be 579d 12c0 f507 2bc0 deb3 cdbe
00000180: d738 01bf 7955 2dbf b9aa e23e 3749 9b3e
00000190: 4f86 7bc0 2163 5c3f 24cb 0abe 8e1d ea3e
000001a0: 1e9c c23e 0bd2 1ec0 57ce 1e3d 0037 92be
000001b0: 79ab acbf f5aa 6a3f 7c1e 4cc0 b312 633e
000001c0: 962d e4bf ad96 09c0 e91f 2e3f fefb 163e
000001d0: 5d36 c23e d313 b8bf ffa9 f83e 1dba 8cbf
000001e0: baff a33e 0d6c 23c0 af84 bf3e 32f1 a7be
000001f0: 9c43 1ebf 2393 f7bf 80be db3e 0dc7 08bf
00000200: 13c2 343f f116 77c0 4b96 043f 481d 9f3d
00000210: 9093 e13c 6020 13bf b234 22c0 25fe 2ac0
00000220: 7c3f 2ac0 512a 8e3e ecea 0d3f b586 7c3c
00000230: 9d3c f93e 1205 5ebd e1a4 1cc0 467c ffbf
00000240: 4a5a 08c0 8caf 993e a76b efbe 225d 73be
00000250: fceb 3bbf 9fbf 5d3f 3e47 9cbf d201 373e
00000260: 3e57 cfbf ae8a 0c3f 3565 613e 06c6 a0be
00000270: 7e44 7abf affa a0bf de0e 653f bba8 10c0
00000280: 9e44 bcbe 0d2d ae3e a920 dbbf 5884 f3bd
00000290: 0da6 efbe aefa c2bf e834 bd3d cba0 843e
000002a0: 1d8b 113f 7272 12bf 88e7 cbbf c39e 753e
000002b0: 7130 ddbf 4f8e bdbf 7126 a93e 822e d43e
000002c0: 4d96 ce3e dcdb 32be 1a6e 39c0 8fc4 1fbe
000002d0: 30f7 63be 50a0 3fbf 5a9a 14c0 e48e 5f3f
000002e0: b8ed 25bf 54b2 cebf b09a 413f 3958 153e
000002f0: a82b 993c 2f9f 2e3f 350d 5cc0 66ea e5bf
-1.7313808 0.5562948 -1.6948332 0.04505734 0.46377316 -0.29809463 -1.469955 0.5458944
0.8021531 -1.6831365 -1.7636204 -0.15413275 -2.6547005 0.6322819 -0.622408 0.3587507
-1.954193 -0.8181742 0.13972485 -0.10403937 -0.6905981 0.06454984 0.7520005 0.25312382
-0.16478497 -0.24939948 -0.7415714 0.2141551 -0.34988323 0.48939994 -1.7164253 0.41997427
-2.415159 -0.5834597 0.7236852 -0.20141536 -1.0199915 0.934957 0.11139379 -2.4829633
-0.30012116 -0.32206026 -0.302596 0.2812325 -0.96380633 0.2206893 -0.4994274 0.51702213
-0.965638 0.3599555 0.2938407 -0.3447398 0.17291318 -1.8182341 -0.9359409 -0.6903516
0.22980429 0.50272 -1.804628 0.3257786 0.31749102 -1.299928 -1.738914 -2.0615218
-0.4653856 -0.2369357 0.28976753 0.32377347 -1.3775922 -1.96004 0.5764721 0.20890982
0.52263886 -0.9026074 -0.060213298 -0.25268385 -2.2071283 -0.1946605 0.03661731 -0.47157454
-0.31893343 -2.8044043 0.655075 -0.19941145 -1.2874341 0.5560558 0.19053431 -0.69881886
1.1391212 -1.5533313 -0.88547903 -0.09595037 -0.22463658 -2.2908533 -2.6723607 -0.4017629
-0.50477356 -0.67708546 0.44270876 0.30329296 -3.9300725 0.8608876 -0.13554054 0.45725673
0.38009733 -2.48157 0.038771 -0.28557587 -1.3489829 0.9166711 -3.1893606 0.22175102
-1.7826412 -2.1498215 0.6801744 0.14744565 0.379321 -1.438105 0.48567197 -1.0994297
0.3203104 -2.55347 0.37405917 -0.32801205 -0.61821914 -1.9341778 0.42918777 -0.5342873
0.70608634 -3.8607752 0.5179183 0.07769257 0.027536184 -0.57471275 -2.5344663 -2.6717618
-2.6601248 0.2776666 0.5543659 0.015412976 0.48679057 -0.054204054 -2.4475634 -1.99598
-2.1305108 0.30016744 -0.4676182 -0.23765996 -0.7340696 0.86620516 -1.2209241 0.17871788
-1.6198499 0.5489911 0.22011264 -0.3140108 -0.9776076 -1.2576503 0.8947581 -2.2602985
-0.367711 0.34018746 -1.7119342 -0.11890477 -0.46806374 -1.5232751 0.09238607 0.25903925
0.56852895 -0.5720588 -1.5930033 0.23986344 -1.7280408 -1.4809054 0.3303714 0.41441733
0.40349045 -0.17466682 -2.897345 -0.15602325 -0.22262263 -0.7485399 -2.3219209 0.8732741
-0.64815855 -1.6148171 0.7562666 0.14584436 0.018697575 0.68211645 -3.438306 -1.7962158

l3.bias f4 [24]
00000000: 1f88 ce3d 02c1 03be 95a5 c3be 16ea 973e
00000010: 82d1 733e a1cb 42bd 007a 2e3e a292 0a3f
00000020: dcab 09bf 4a54 42bf 0188 1bbd 8f2b dd3e
00000030: ac23 9cbd a91f 8a3e 68bc 123e eb28 793e
00000040: 51da b13d 873b ed3e a77f 0cbd 6a25 90be
00000050: f30b b9be ac27 283e b1e0 3ebe 1483 c9bb
0.10084557 -0.12866595 -0.38212267 0.2967078 0.2381039 -0.047557477 0.17038727 0.54129994
-0.5377786 -0.75909865 -0.0379715 0.43197295 -0.07623991 0.2697728 0.14329684 0.24332015
0.08684219 0.46334478 -0.034301426 -0.28153545 -0.3614193 0.16421384 -0.186404 -0.006149659
